…
   "cell_type": "code",
   "execution_count": 40,
   "metadata": {},
   "outputs": [
    {
     "name": "stdout",
     "output_type": "stream",
     "text": [
      "Model: \"vgg19\"\n",
      "_________________________________________________________________\n",
      " Layer (type)                Output Shape              Param #   \n",
      "=================================================================\n",
      " input_1 (InputLayer)        [(None, 32, 64, 3)]       0         \n",
      "                                                                 \n",
      " block1_conv1 (Conv2D)       (None, 32, 64, 64)        1792      \n",
      "                                                                 \n",
      " block1_conv2 (Conv2D)       (None, 32, 64, 64)        36928     \n",
      "                                                                 \n",
      " block1_pool (MaxPooling2D)  (None, 16, 32, 64)        0         \n",
      "                                                                 \n",
      " block2_conv1 (Conv2D)       (None, 16, 32, 128)       73856     \n",
      "                                                                 \n",
      " block2_conv2 (Conv2D)       (None, 16, 32, 128)       147584    \n",
      "                                                                 \n",
      " block2_pool (MaxPooling2D)  (None, 8, 16, 128)        0         \n",
      "                                                                 \n",
      " block3_conv1 (Conv2D)       (None, 8, 16, 256)        295168    \n",
      "                                                                 \n",
      " block3_conv2 (Conv2D)       (None, 8, 16, 256)        590080    \n",
      "                                                                 \n",
      " block3_conv3 (Conv2D)       (None, 8, 16, 256)        590080    \n",
      "                                                                 \n",
      " block3_conv4 (Conv2D)       (None, 8, 16, 256)        590080    \n",
      "                                                                 \n",
      " block3_pool (MaxPooling2D)  (None, 4, 8, 256)         0         \n",
      "                                                                 \n",
      " block4_conv1 (Conv2D)       (None, 4, 8, 512)         1180160   \n",
      "                                                                 \n",
      " block4_conv2 (Conv2D)       (None, 4, 8, 512)         2359808   \n",
      "                                                                 \n",
      " block4_conv3 (Conv2D)       (None, 4, 8, 512)         2359808   \n",
      "                                                                 \n",
      " block4_conv4 (Conv2D)       (None, 4, 8, 512)         2359808   \n",
      "                                                                 \n",
      " block4_pool (MaxPooling2D)  (None, 2, 4, 512)         0         \n",
      "                                                                 \n",
      " block5_conv1 (Conv2D)       (None, 2, 4, 512)         2359808   \n",
      "                                                                 \n",
      " block5_conv2 (Conv2D)       (None, 2, 4, 512)         2359808   \n",
      "                                                                 \n",
      " block5_conv3 (Conv2D)       (None, 2, 4, 512)         2359808   \n",
      "                                                                 \n",
      " block5_conv4 (Conv2D)       (None, 2, 4, 512)         2359808   \n",
      "                                                                 \n",
      " block5_pool (MaxPooling2D)  (None, 1, 2, 512)         0         \n",
      "                                                                 \n",
      "=================================================================\n",
      "Total params: 20,024,384\n",
      "Trainable params: 7,079,424\n",
      "Non-trainable params: 12,944,960\n",
      "_________________________________________________________________\n"
     ]
    }
   ],
   "source": [
    "from tensorflow.keras.applications import VGG19\n",
…
      "Model: \"Handwriting_OCR\"\n",
      "__________________________________________________________________________________________________\n",
      " Layer (type)                   Output Shape         Param #     Connected to                     \n",
      "==================================================================================================\n",
      " image (InputLayer)             [(None, 32, 64, 3)]  0           []                               \n",
      "                                                                                                  \n",
      " vgg19 (Functional)             (None, 1, 2, 512)    20024384    ['image[0][0]']                  \n",
      "                                                                                                  \n",
      " reshape (Reshape)              (None, 32, 32)       0           ['vgg19[0][0]']                  \n",
      "                                                                                                  \n",
      " dense2 (Dense)                 (None, 32, 32)       1056        ['reshape[0][0]']                \n",
      "                                                                                                  \n",
      " batch_normalization (BatchNorm  (None, 32, 32)      128         ['dense2[0][0]']                 \n",
      " alization)                                                                                       \n",
      "                                                                                                  \n",
      " dropout (Dropout)              (None, 32, 32)       0           ['batch_normalization[0][0]']    \n",
      "                                                                                                  \n",
      " bidirectional (Bidirectional)  (None, 32, 512)      591872      ['dropout[0][0]']                \n",
      "                                                                                                  \n",
      " label (InputLayer)             [(None, None)]       0           []                               \n",
      "                                                                                                  \n",
      " dense3 (Dense)                 (None, 32, 42)       21546       ['bidirectional[0][0]']          \n",
      "                                                                                                  \n",
      " ctc_loss (CTCLayer)            (None, 32, 42)       0           ['label[0][0]',                  \n",
      "                                                                  'dense3[0][0]']                 \n",
      "                                                                                                  \n",
      "==================================================================================================\n",
      "Total params: 20,638,986\n",
…
